instagram_filters/HandGesture_Model/Model.tflite (tflite, 7464 bytes, 8 tensors)

sequential/dense_3/MatMul f4 [4, 10]
00000000: 317e e43e d0fb 403f 8a5d e2be 2b1c 2abe
00000010: ff53 dcbf 926c 2e3f e04d bb3d 008e b53e
00000020: f8f7 08bf 3e85 ca3e 12af eb3e be2e b9bf
00000030: cc7f fb3e 9255 933e 8cd1 93bf af8a ff3e
00000040: 22dc 86be cf98 e33e ba2b 05bf bd84 eb3e
00000050: 590b 09bf 8c61 a93f 9800 86bf bedf 78be
00000060: 3c2c ad3f 47bb bcbf d993 c4bf 0d57 7cbf
00000070: b36b 89be a332 89bf f79c 04bf 073a b8bf
00000080: f674 113f 267c 723f e805 ec3e a152 82be
00000090: 534b cebe a57c 99be 2847 3d3f 1917 5e3e
0.44627526 0.75384235 -0.4421199 -0.16612308 -1.7213134 0.68134415 0.09145713 0.354599
-0.5350337 0.3955478 0.46032006 -1.446739 0.4912094 0.28776222 -1.1548324 0.49910495
-0.26339823 0.4445252 -0.52019846 0.4599971 -0.5353294 1.3232894 -1.0468931 -0.24304101
1.3529124 -1.4744653 -1.535762 -0.9857033 -0.2683998 -1.0718578 -0.5180201 -1.4392709
0.56819093 0.94720685 0.46098256 -0.25453666 -0.40291843 -0.2997791 0.739367 0.21688499

sequential/dense_2/MatMul f4 [10, 20]
00000000: 271d 54bd 0f27 3abf 5119 75be ea58 17be
00000010: 826f fdbe 5490 31bd d5b1 1c3c b856 96bd
00000020: 6801 dbbe b9b7 ae3e 3a4a bd3e 2be8 50bc
00000030: bb4a b6be a51e 52be d229 a63d e7b5 8c3c
00000040: 77b0 083f 0a98 5bbb c78e 0a3c fb77 85be
00000050: fbb7 9bbf da4c aa3c 74a2 623f 325c 333c
00000060: 0cdf 03bf d6c0 b1bf c8fa a5bc 9903 61bf
00000070: d53f 20bd 57b7 643d 8b6f 823c 3464 9cbf
00000080: 3194 45bf ceac 383f 24a5 853c a256 a5bf
00000090: e240 123d d632 b7bf e386 a5bf cfdf 7b3c
000000a0: 1ec5 f93e 189d 783e 21e8 7fbe a531 753e
000000b0: ad7f 683e 3f38 373c 2127 a8bd 2dd8 47bf
000000c0: 4e09 c5bd 11ab c93e ccf4 af3d adce c83e
000000d0: 1d0f bb3e 5e67 45be 3a1d 8bbd f973 ca3e
000000e0: af68 c33e b22a bd3e a188 aa3e 16e5 383e
000000f0: c106 be3e 2551 6dbd b3a5 e3be 482d 963e
00000100: 7e04 4a3f 0d64 023f 6a86 bc3e 7fb5 863f
00000110: 09d1 84bd d525 523d c1f2 c23e 345d d7bd
00000120: f361 463f 2444 30be 860c 1a3f 2e08 d1bd
00000130: 0bdd 74bd 0dd5 5e3e 285a a83c a7b1 5b3e
00000140: 2240 963e 8b08 4ebf 4257 0d3f 1939 f4be
00000150: 25c2 4d3e 1d39 173d 53ed 82bf 55ea 31be
00000160: 342a cabf 8ed3 a0bf 1b02 91bf ae20 a43d
00000170: 7f1e 943d 165b fa3e 88c3 e9be 5f4f f23d
00000180: f651 84bf cc36 25bd d1b0 e7bc ee17 91bf
00000190: fd7a 673e 6276 0a3f 8705 12bf 7a2f 4f3e
000001a0: 1817 a1be c65d fe3c 2403 4c3e 8043 0b3c
000001b0: 864e 1d3f 16bf da3e bbf8 b93e 53b8 d03d
000001c0: 75b4 18be 7bfc cdbe 2a98 a73e b47a 613d
000001d0: 2660 023c 13b2 4d3e 38cf 653c c4fa 8e3e
000001e0: 55d9 f33d f3f0 373e 43d1 09bf 5254 563f
000001f0: 8823 2fbe 90c6 df3c 36da 093f cddd 81bd
00000200: 0a6d 113f 9764 003f 91f0 d43e 306e 8fbe
00000210: 9569 553e 0ffb c0be daf0 ec3e a36e 1cbe
00000220: 54e6 4e3f 9569 9fbd 22c8 dcbc ec62 fa3e
00000230: a2ce bebd d4a7 84bf 9647 14bf cf28 5d3e
00000240: e861 2cbf 8b0c 8bbd c50e 103e 2878 0abe
00000250: 3698 db3d ad39 a63e ca7d 88bd 8a57 853e
00000260: 94c5 d2be e8c0 f5be 1f55 293e 9d14 febd
00000270: 7c5b e7be 2cba 28bd 3450 973d 6ab6 9d3e
00000280: 3e6e 2dbf 4737 bbbd e28c c5be c1a9 11bc
00000290: 5c9b 873e 175e aabe 6986 a2be a72b 4cbf
000002a0: 6d8c 8fbd 7966 83be 892c 1ebe 4e9d 0d3e
000002b0: 65ea 453f b652 04bf b2ae 86bc a037 ef3d
000002c0: dfdc adbd 0325 0e3f a75e 433e 4f0c 72bd
000002d0: 1122 9ebe eb24 163f a0b4 afbe e01c c2be
000002e0: 3d1a 323e 6467 a73e 672f 2f3c 93d9 a3bd
000002f0: d40b 22be d387 c43e 175b 1b3e 2f78 58be
00000300: 6173 36be cf86 b8be 8de7 f73e c5a0 dd3e
00000310: 556a 12bf 2f6f c5be 875d 6ebe a5e1 41be
-0.051785614 -0.7271585 -0.23935439 -0.14780012 -0.49499136 -0.043350533 0.009563883 -0.07340759
-0.4277451 0.34124544 0.36970693 -0.012750666 -0.3560389 -0.20519502 0.08113445 0.017176582
0.53394264 -0.003350737 0.008456892 -0.260681 -1.2165521 0.020788599 0.88529134 0.010947274
-0.5151222 -1.3886974 -0.020261183 -0.87896115 -0.039123375 0.05583891 0.015922328 -1.221808
-0.7717925 0.7213868 0.016314097 -1.2917063 0.03570641 -1.4312389 -1.2931789 0.015373184
0.487832 0.24278677 -0.24990894 0.23944719 0.22704954 0.011182844 -0.08210588 -0.78064233
-0.09620915 0.39388326 0.08591613 0.3922018 0.36534968 -0.19277713 -0.06792684 0.39541605
0.38165805 0.36946636 0.33307365 0.1805614 0.37114528 -0.057938714 -0.44462356 0.29331422
0.78913105 0.50933915 0.368213 1.0524138 -0.06485183 0.05130561 0.38075832 -0.10515824
0.7749321 -0.17213494 0.6017536 -0.10206638 -0.059781116 0.2176096 0.020550802 0.21454488
0.29345804 -0.80481786 0.5521127 -0.47699812 0.20093592 0.0369197 -1.0228676 -0.17374547
-1.5794129 -1.2564561 -1.1328768 0.08014046 0.07232379 0.48897618 -0.4565699 0.11831545
-1.0337512 -0.04033546 -0.028282555 -1.1335428 0.2260551 0.5408689 -0.57039684 0.20232955
-0.31462932 0.031050574 0.19923073 0.00849998 0.6144794 0.42723912 0.3632258 0.10191407
-0.14912589 -0.4023169 0.3273328 0.05504866 0.007957494 0.20087461 0.014026456 0.27925694
0.11906687 0.17963009 -0.53834933 0.8372241 -0.17103398 0.027316362 0.5384859 -0.06341133
0.56807005 0.5015349 0.41589788 -0.28013754 0.20841058 -0.37691543 0.46277505 -0.1527658
0.808202 -0.0778381 -0.0269509 0.48903596 -0.09316756 -1.0363717 -0.5792173 0.21597598
-0.67336893 -0.06789502 0.14068134 -0.13522398 0.10722391 0.32465878 -0.06664617 0.2604335
-0.41166365 -0.47998738 0.16536377 -0.124062754 -0.45186985 -0.041193172 0.073883444 0.30803233
-0.6774634 -0.09141403 -0.38584048 -0.00889057 0.26485717 -0.3327491 -0.31743172 -0.7975411
-0.07009206 -0.25664118 -0.15446676 0.13829538 0.7731078 -0.51688707 -0.016440723 0.116805315
-0.084893934 0.55525225 0.19079076 -0.05909377 -0.30885366 0.5865008 -0.34317493 -0.37912655
0.17392822 0.32696068 0.010692454 -0.08000483 -0.15824825 0.38384876 0.15171467 -0.21139596
-0.17817451 -0.3604035 0.48418847 0.4328672 -0.571935 -0.3856139 -0.23277865 -0.18933733

sequential/dense_1/MatMul f4 [20, 30]
00000000: 815e 8b3c 2b9f 4cbd 1926 eb3d f991 533e
00000010: be1f 6a3e 0b0d 833f 4c82 53be e4f5 0b3f
00000020: 5f93 a73d 4926 a93d 6a8f 0b3e 6b80 273d
00000030: 91d8 0f3e b8fe bdbd f20f cebc ec60 063f
00000040: 1340 22bd c583 2f3d 29df 893e 4ab9 0d3e
00000050: d87e 1abd 39aa a8be cd80 df3e 0b89 d3be
00000060: 6979 183f 569e 7a3e ad07 6f3e 2c5d b23e
00000070: e325 dc3e cdf0 7e3e bc22 cc3e 0cf6 4d3e
00000080: a03f b53e 08b8 bfbe cc76 b73e 1158 51bf
00000090: 59e1 86bd 28f0 8cbe 9ab0 d4be db00 c6bd
000000a0: 0e63 573f 57cc 963e a577 ac3c 1e1a 8d3e
000000b0: 5a7b d13e d0f6 bebe 2a53 9c3e b930 373f
000000c0: b6c1 01bf d8cb d73d f156 a63e 0df0 7ebd
000000d0: 2e4b adbe 3990 e8bd 75ef f6be a58c ee3b
000000e0: 79f5 f0be a02f e53e e9cc 12be 59ea 3b3d
000000f0: 26fe e0be 57a3 d1be 6f2f 8bbd cfa1 cdbe
00000100: fe84 a4be 81fc 51bc e2f5 0b3d e334 09bf
00000110: 29fc 73be f0b3 97be fc03 debe 9d4b 06bf
00000120: 8a8f b93d a4d9 67be 6f9d 1cbf 962b cebe
00000130: b32e bdbe d730 7bbe 39ea b63c a265 1fbf
00000140: bcf9 28bf 23bd 49bc 4d60 d0be cee1 db3d
00000150: 278d d2be c780 77be 25f4 e9be ab73 ccbe
00000160: 7942 8dbe 86be dcbe a52d f43e 7515 763e
00000170: 6b2c 4a3d 2188 16bd f2f7 5c3e 291a 6bbe
00000180: e67b e0bb 487b 97bd 37ef 3c3c 282a 083f
00000190: c809 5d3f 095f b13e 5093 babd 2eac c93e
000001a0: a06f bd3e eb47 efbd eefe ba3e 634e e53e
000001b0: e1e0 68bd 39ab 6e3d 8e43 b03e af23 65bc
000001c0: 43f4 4dbd a0b0 03bd ff2f edbc 7d24 a83c
000001d0: 9219 0a3d 0cc4 b43e cc71 733d 79bb d33d
000001e0: 6977 75be aafd 2fbe 5d42 33be 0fba c23e
000001f0: e6cc 08be 0464 943f 791c dabc 1618 f13e
00000200: 5b89 0b3d 35a8 6bbe 91ea aabe 9843 463d
00000210: af74 c7bd 12d6 8ebe e206 97bd 6dc9 f43e
00000220: e2bb 42be 4574 a1be 6999 023f c0f9 e13d
00000230: 0594 cebd 67d2 80be b40d ca3e 8048 b1be
00000240: 810e 203f b291 2dbd 88d2 3abd 8501 acbd
00000250: e570 f13d f6f6 af3d b27a dfbb 1af2 edbb
00000260: b61e 923e c897 273f 6ea1 753e e5ed 8b3f
00000270: a11c 7cbe 734b 1e3f b7c9 193e 723f 7e3c
00000280: a231 d83d d094 1c3c 8ac0 293e 6c53 aabd
00000290: 952f 61ba 1bd9 223f e0f7 21bd 1de0 d63d
000002a0: 15f0 2d3e 0962 f03d aa1a 44bc 6d1a 8bbe
000002b0: f19c 2b3f d88d c0be 8547 623f b102 923e
000002c0: 0422 b43e 1ab7 4d3e fc1d 003f 819f cc3e
000002d0: e684 893e f57b ca3e cc68 403d 49ea acbe
000002e0: 80bc e43d 7c21 2ebf f3b3 93ba fa59 09be
000002f0: 5407 d43a 682b bf3e 33bf e73e 576c 6c3e
00000300: de15 c1be 40ab a73e b39a 17be 1eab 67be
00000310: 674f b33e 6992 f4bc fb6a 3dbe 44e5 88bd
00000320: 028b 4d3e 10a1 fd3b c4b0 1fbe 03c9 c2bc
00000330: 4097 acbe 40a4 aa3d 373e e83b e524 893d
00000340: 073e dcbe 08b2 f5bd 6420 3cbd 3253 ddbc
00000350: de74 60bd 2411 7b3f f085 483b 8b70 a93f
00000360: e016 01be 6566 633f fd70 943e bc68 d9be
00000370: aff4 86be 44f8 0b3d b0e8 f2bd 5c93 1dbd
00000380: a823 24ba 15f0 463f ef68 e03b f41e 22be
00000390: d849 ec3e cac2 6d3e 79a4 fb3b c507 06be
000003a0: f9d3 4e3f 614e 5fbe 6490 893f bd45 073e
000003b0: 7ccf 023f 3a14 8c3d 65b4 2c3f 5ca1 043f
000003c0: 1c50 183e cb85 343e 5cac 21bf 9a10 e6be
000003d0: d70c debe 31e3 06bf 24fe cc3b c159 0fbf
000003e0: ff0c c4be 703c 00be b0c7 b53d 4d96 083e
000003f0: 803d 6cbf 1642 a03e 3bf5 273e 13f9 f4be
0.017012836 -0.049956482 0.11481876 0.20661153 0.22863671 1.0238355 -0.20655173 0.54672074
0.08182406 0.082592554 0.13628927 0.040893953 0.14047457 -0.09277099 -0.025154088 0.5249164
-0.039611887 0.042850275 0.2692807 0.13840213 -0.037718624 -0.3294237 0.43652955 -0.41315493
0.5956026 0.24474463 0.23342772 0.3483671 0.42997655 0.24896546 0.3987025 0.2011339
0.35400105 -0.37445092 0.35832822 -0.81775004 -0.065859504 -0.27526975 -0.41540986 -0.09668132
0.8413552 0.29452774 0.021053145 0.27558988 0.40914422 -0.37297678 0.305322 0.7155872
-0.50686204 0.10536927 0.32488206 -0.06224065 -0.3384642 -0.11355633 -0.48229566 0.0072799497
-0.4706228 0.44762897 -0.1433598 0.04587779 -0.439439 -0.4094493 -0.067961566 -0.40162513
-0.32132715 -0.012816549 0.03417004 -0.53596324 -0.2382666 -0.2962947 -0.43362415 -0.52459127
0.09060581 -0.22641617 -0.61177725 -0.40267628 -0.3694969 -0.2453035 0.022328483 -0.62264454
-0.66006064 -0.01231316 -0.40698472 0.10736428 -0.41123316 -0.24170218 -0.4569408 -0.39931998
-0.27589777 -0.43114108 0.47691074 0.24031623 0.049358767 -0.036750916 0.21578959 -0.22959198
-0.0068507073 -0.07396561 0.011531643 0.53189325 0.8634305 0.3464282 -0.09110129 0.39389175
0.36999226 -0.11683639 0.3652262 0.44786367 -0.056855086 0.05826876 0.3442654 -0.013985558
-0.050281774 -0.032150865 -0.02895355 0.020525211 0.033715792 0.35305822 0.059434697 0.10338492
-0.23971333 -0.17186609 -0.17505784 0.38032576 -0.13359413 1.1593022 -0.026624905 0.4708869
0.03406654 -0.23013385 -0.33382085 0.048404306 -0.097390525 -0.27897698 -0.0737436 0.47809926
-0.19016984 -0.3153402 0.51015335 0.11033964 -0.10086826 -0.25160524 0.3946358 -0.34625626
0.6252213 -0.042375274 -0.045610934 -0.08398727 0.11789111 0.08592026 -0.0068200463 -0.007261527
0.28539056 0.65465975 0.23987362 1.0931975 -0.24620296 0.61833876 0.15018354 0.015518056
0.10556342 0.009556964 0.16577354 -0.08316693 -0.0008590159 0.63612527 -0.039543033 0.10491965
0.16986115 0.11737449 -0.011969248 -0.271686 0.6703635 -0.37608218 0.8839038 0.28517678
0.35182202 0.20089379 0.5004575 0.39965442 0.26859206 0.39547697 0.046974942 -0.33772495
0.11168766 -0.68019843 -0.0011268839 -0.1341323 0.00161765 0.37337804 0.4526306 0.23088203
-0.37711996 0.3274784 -0.14805107 -0.2262387 0.35021517 -0.02985497 -0.18497841 -0.06684354
0.20072559 0.0077401474 -0.15594774 -0.02377749 -0.33709145 0.083321095 0.0070874947 0.0669649
-0.43016073 -0.119968474 -0.045929328 -0.02701721 -0.054798953 0.9807303 0.003059741 1.323747
-0.12606382 0.88828117 0.28992453 -0.42462718 -0.26358554 0.03417231 -0.11860788 -0.03847061
-0.0006261417 0.77710086 0.0068484466 -0.1583212 0.46150088 0.23218837 0.007679519 -0.13088901
0.80792195 -0.21807243 1.074719 0.13210197 0.51097846 0.068397954 0.6746276 0.51808715
0.1487431 0.17629163 -0.63153625 -0.4493454 -0.4336917 -0.52690417 0.006255882 -0.5599633
-0.38291165 -0.12523055 0.08875978 0.13338585 -0.9228134 0.3130042 0.16402142 -0.4784628

sequential/dense/BiasAdd/ReadVariableOp f4 [30]
00000000: 134f aabe dba1 61be 8654 82be 84cd 31bf
00000010: 32ec a5be b794 32bf 8a5c 7e3d b6ae 33bf
00000020: ec23 a1be f788 34bd 0041 423d b534 edbe
00000030: 6a24 43bd ce6c adbe 8c97 bfbe 7977 33bf
00000040: 4901 9ebe 9f94 e4be 5cc5 93bd 0407 bebe
00000050: 1f28 b3be 06cd 96bd c925 35bf f276 e03d
00000060: 5f08 39bf 816a f8be 825a f0be 47b6 bcbe
00000070: 7e60 3abf 1b47 08bf
-0.33263454 -0.22034399 -0.2545511 -0.69454217 -0.32406765 -0.6975817 0.06209997 -0.7018846
-0.3147272 -0.044075932 0.04742527 -0.46329275 -0.04764215 -0.33872074 -0.3742031 -0.70104176
-0.30860355 -0.4464464 -0.07215378 -0.37114727 -0.34991547 -0.07363324 -0.7076078 0.10960187
-0.722784 -0.48518756 -0.46944052 -0.36857817 -0.72803485 -0.532335

sequential/dense_3/BiasAdd/ReadVariableOp f4 [4]
00000000: e892 2abe 7efa ba3c 6bb5 a13e 6cfd 34be
-0.16657603 0.022824522 0.31583723 -0.17674798

sequential/dense_2/BiasAdd/ReadVariableOp f4 [10]
00000000: 02f4 e63d 4cfd 453f 8bf5 0d3d 1220 7e3d
00000010: 174a 803f 905d 4f3e 81b4 d53d bd7b 203e
00000020: 07b7 573d b612 8c3b
0.112770095 0.77339625 0.034657996 0.062042303 1.002261 0.20250535 0.10434819 0.15672202
0.052664783 0.0042746915

sequential/dense_1/BiasAdd/ReadVariableOp f4 [20]
00000000: f60b 7ebb 5156 c33b 2540 8e3d 40a2 b9b6
00000010: 6205 8c3d 61b0 55bc 62c2 c3bb 7e32 3d3d
00000020: db65 edbb 0184 e1bb 6d6a 173c b3f7 4d3c
00000030: 0cf5 cfbc 5727 663d 3297 aaba 367e 9239
00000040: 8a68 c2bb 1ce2 ffbc 0eae 223c 5dc0 0dbc
-0.0038764453 0.0059612175 0.06945828 -5.532318e-06 0.06836964 -0.01304254 -0.0059741 0.04619073
-0.007244808 -0.006882191 0.0092416825 0.012571263 -0.025385402 0.05618986 -0.001301503 0.00027941325
-0.005932872 -0.031235747 0.009929193 -0.00865182

sequential/dense/MatMul i1 [30, 42] scale=0.011257545 zero_point=0
00000000: f9f8 f62f f60f df13 d80b 0208 fd05 fe01
00000010: 0101 0105 fcff 01fe 02fb f205 fdfe 05f2
00000020: eaf8 fe07 1505 3af6 4cf7 e9ef 1321 2d14
00000030: 2e10 3804 f209 0307 0303 fffa f108 0005
00000040: fb00 f701 fa0a fb04 f6f2 c9e1 0c0a fc0d
00000050: f5ff cf0a 020a fe05 01f3 060b 08f6 fa01
00000060: 0302 fc10 f81e 0b02 0803 0bfd 07fc 04ff
00000070: 0d00 25fa 3cf9 0f05 d108 cc00 d2fe ecf5
00000080: 47e6 16c0 0511 06fa 07f7 ff04 f907 f508
00000090: 06ea 0605 fe08 f809 01fa 0bfd 0404 f808
000000a0: f7d9 1be7 14fe 0b01 07f1 d91a f709 f4f1
000000b0: f1d8 06fb 0204 050b 0814 ff05 fb02 f7ff
000000c0: fb04 0503 f704 e5fa c303 0d0e 1404 150d
000000d0: 1eea ed09 fbdb fc0b fd05 ff03 ffa5 0001
000000e0: 0201 0102 0201 ff01 0002 0104 fef1 fc02
000000f0: 0003 0003 02f5 00fd fffe 00fe 0b05 00f6
-0.07880282 -0.09006036 -0.11257545 0.5291046 -0.11257545 0.16886318 -0.371499 0.21389335
-0.4503018 0.12383299 0.02251509 0.09006036 -0.033772636 0.056287725 -0.02251509 0.011257545
0.011257545 0.011257545 0.011257545 0.056287725 -0.04503018 -0.011257545 0.011257545 -0.02251509
0.02251509 -0.056287725 -0.15760563 0.056287725 -0.033772636 -0.02251509 0.056287725 -0.15760563
-0.24766599 -0.09006036 -0.02251509 0.07880282 0.23640844 0.056287725 0.6529376 -0.11257545
0.8555734 -0.101317905 -0.25892353 -0.19137827 0.21389335 0.371499 0.50658953 0.2251509
0.51784706 0.18012072 0.63042253 0.04503018 -0.15760563 0.101317905 0.033772636 0.07880282
0.033772636 0.033772636 -0.011257545 -0.06754527 -0.16886318 0.09006036 0.0 0.056287725
-0.056287725 0.0 -0.101317905 0.011257545 -0.06754527 0.11257545 -0.056287725 0.04503018
-0.11257545 -0.15760563 -0.619165 -0.34898388 0.13509054 0.11257545 -0.04503018 0.14634809
-0.12383299 -0.011257545 -0.5516197 0.11257545 0.02251509 0.11257545 -0.02251509 0.056287725
0.011257545 -0.14634809 0.06754527 0.12383299 0.09006036 -0.11257545 -0.06754527 0.011257545
0.033772636 0.02251509 -0.04503018 0.18012072 -0.09006036 0.33772635 0.12383299 0.02251509
0.09006036 0.033772636 0.12383299 -0.033772636 0.07880282 -0.04503018 0.04503018 -0.011257545
0.14634809 0.0 0.41652918 -0.06754527 0.6754527 -0.07880282 0.16886318 0.056287725
-0.5291046 0.09006036 -0.58539236 0.0 -0.51784706 -0.02251509 -0.2251509 -0.12383299
0.7992857 -0.29269618 0.24766599 -0.7204829 0.056287725 0.19137827 0.06754527 -0.06754527
0.07880282 -0.101317905 -0.011257545 0.04503018 -0.07880282 0.07880282 -0.12383299 0.09006036
0.06754527 -0.24766599 0.06754527 0.056287725 -0.02251509 0.09006036 -0.09006036 0.101317905
0.011257545 -0.06754527 0.12383299 -0.033772636 0.04503018 0.04503018 -0.09006036 0.09006036
-0.101317905 -0.43904427 0.3039537 -0.28143862 0.2251509 -0.02251509 0.12383299 0.011257545
0.07880282 -0.16886318 -0.43904427 0.29269618 -0.101317905 0.101317905 -0.13509054 -0.16886318
-0.16886318 -0.4503018 0.06754527 -0.056287725 0.02251509 0.04503018 0.056287725 0.12383299
0.09006036 0.2251509 -0.011257545 0.056287725 -0.056287725 0.02251509 -0.101317905 -0.011257545
-0.056287725 0.04503018 0.056287725 0.033772636 -0.101317905 0.04503018 -0.3039537 -0.06754527
-0.68671024 0.033772636 0.14634809 0.15760563 0.2251509 0.04503018 0.23640844 0.14634809
0.33772635 -0.24766599 -0.21389335 0.101317905 -0.056287725 -0.41652918 -0.04503018 0.12383299
-0.033772636 0.056287725 -0.011257545 0.033772636 -0.011257545 -1.0244366 0.0 0.011257545
0.02251509 0.011257545 0.011257545 0.02251509 0.02251509 0.011257545 -0.011257545 0.011257545
0.0 0.02251509 0.011257545 0.04503018 -0.02251509 -0.16886318 -0.04503018 0.02251509
0.0 0.033772636 0.0 0.033772636 0.02251509 -0.12383299 0.0 -0.033772636
-0.011257545 -0.02251509 0.0 -0.02251509 0.12383299 0.056287725 0.0 -0.11257545
